checkpoints/pam/pam_net_A.pth (torch_old, 161536 bytes, 57 tensors)

Self_Att.stages.0.f_key.0.weight f4 [8, 64, 1, 1]
0.21576095 0.053717628 0.21771881 -0.032864694 -0.09413951 0.11039914 0.24695008 0.33965525
-0.03715902 0.21534674 -0.015870081 -0.011060428 0.07683325 -0.039497275 -0.07416375 0.0007938092
-0.012416713 -0.0023937062 0.16537337 -0.14117463 0.030828478 0.03664931 0.022389589 -0.03765904
-0.079224914 0.034363925 0.10195863 -0.24910401 0.13145697 0.17647727 -0.12550493 -0.044617485
0.13870414 0.05873282 -0.046989437 0.004754431 0.1122393 0.315776 0.32564136 0.2864336
-0.070855156 -0.032723844 0.06464829 0.04300117 0.080323175 -0.04632531 0.1237389 0.006381118
0.13226627 0.010397058 0.102912284 0.10732527 0.15280244 0.15156157 0.052601017 0.09230352
0.062071662 0.011965831 -0.077963166 -0.13837603 0.15534721 -0.04825195 0.23364024 0.120062225
0.28035605 -0.14115332 -0.10344302 0.1425401 -0.114288665 0.44485345 0.2230589 -0.015692757
0.078161 -0.0715153 -0.075260885 -0.04914953 -0.122762635 0.109435 -0.10715427 0.024241915
0.0579758 -0.15621068 0.16014121 -0.08450873 -0.0001905537 -0.030921996 0.16319719 0.29911727
0.067786545 0.18180893 -0.07036723 -0.052386004 -0.13547124 -0.14327379 0.15775996 -0.11575127
0.33961347 0.010542652 -0.14315957 0.37381655 0.18312173 0.027290624 -0.091665395 0.24200979
0.0750376 -0.029725803 0.28287005 0.03978817 0.049036864 0.030614682 -0.044040393 -0.2209003
0.038675882 -0.2475402 0.29622808 -0.12506954 -0.045495328 0.5195977 0.09133382 0.18344344
0.063232414 0.100459 0.024026897 0.13639069 0.20735095 -0.05582176 0.2093489 0.26603046
0.069094956 -0.23231852 -0.17567648 0.03454019 -0.027073478 -0.06785059 -0.0003094596 -0.10105794
-0.11896389 -0.1336091 -0.1105863 -0.012750846 -0.12090352 0.14395976 -0.19423275 0.0144432895
0.065579824 -0.20288093 0.028675353 0.006628233 -0.011816286 -0.0684854 -0.1681206 -0.17706576
-0.054859187 -0.23370492 0.11078318 -0.14302626 -0.34243265 -0.0638256 0.12583824 -0.10865551
-0.116147704 0.025986124 -0.31993577 -0.03947877 -0.24280165 0.04375257 0.089517415 0.066907175
-0.066747144 -0.0284333 -0.021506293 0.0853397 0.01586991 -0.037168402 -0.04304379 -0.12061047
-0.0644701 -0.27899808 -0.035723872 -0.11091197 -0.2893523 -0.023619117 0.054503802 0.045892585
0.06700986 -0.14821652 -0.13583797 0.1316014 -0.34243235 -0.2924308 0.0040907185 -0.14462277
0.023479244 0.0018415938 0.06312351 0.100269035 0.18607871 0.1396581 0.09724311 -0.09395684
0.3273721 0.03481511 0.04828488 -0.026717622 0.08957266 0.35034 -0.034068063 0.050007295
0.10077675 0.11480633 -0.048928287 0.1504197 0.15755136 0.103639886 0.1085288 0.27663374
0.14621311 0.36655027 -0.09418471 0.040863685 0.050335992 0.013078303 0.12551917 0.07583089
0.08113035 -0.04593528 0.20364201 0.016991792 0.20302863 0.07820998 -0.0654382 -0.04319665
0.061128847 0.09405468 0.04077875 -0.04588064 -0.02776138 0.10540899 0.06892015 0.35665023
0.28815418 0.18373126 -0.06098087 0.40859124 0.25495633 0.087008715 -0.004678433 -0.108101405
0.04750998 0.3127577 0.23057373 0.10246109 0.3321945 0.22033212 -0.06848613 0.16759351
00000000: 70f0 5c3e 0407 5c3d aef1 5e3e 219d 06bd
00000010: 37cc c0bd f218 e23d 7be0 7c3e 4be7 ad3e
00000020: 0e34 18bd db83 5c3e f901 82bc cc36 35bc
00000030: c05a 9d3d e5c7 21bd 2ae3 97bd a217 503a
00000040: 786f 4bbc badf 1cbb a357 293e 1590 10be
00000050: 018c fc3c 961d 163d 5f6a b73c 5e40 1abd
00000060: ac40 a2bd 30c1 0c3d b0cf d03d 1f15 7fbe
00000070: a89c 063e 75b6 343e 5d84 00be d3c0 36bd
00000080: 7508 0e3e d391 703d ff77 40bd 0fcb 9b3b
00000090: b8dd e53d 64ad a13e 77ba a63e 6da7 923e
000000a0: 821c 91bd 7009 06bd 5366 843d ff21 303d
000000b0: 7a80 a43d 9cbf 3dbd d26a fd3d b318 d13b
000000c0: cf70 073e 6c58 2a3c adc3 d23d 5acd db3d
000000d0: 3e78 1c3e f532 1b3e 2a74 573d a109 bd3d
000000e0: db3e 7e3d 550c 443c 27ab 9fbd 72b2 0dbe
000000f0: 5713 1f3e d6a3 45bd 633f 6f3e 2fe3 f53d
00000100: d48a 8f3e 7f8a 10be efd9 d3bd 08f6 113e
00000110: 2d10 eabd d5c3 e33e 8d69 643e 198e 80bc
00000120: e012 a03d 9d76 92bd 6122 9abd 0451 49bd
00000130: fa6a fbbd 751f e03d b373 dbbd fb96 c63c
00000140: 0878 6d3d b1f5 1fbe 0ffc 233e ea12 adbd
00000150: 5fcf 47b9 2050 fdbc 2a1d 273e e625 993e
00000160: acd3 8a3d 1f2c 3a3e b21c 90bd b592 56bd
00000170: f9b8 0abe 5db6 12be d48b 213e 000f edbd
00000180: d1e1 ad3e 16bb 2c3c 6c98 12be e264 bf3e
00000190: 4384 3b3e 9690 df3c 11bb bbbd 6ad1 773e
000001a0: 50ad 993d 8783 f3bc 58d4 903e ecf8 223d
000001b0: e1da 483d a4cb fa3c b363 34bd b033 62be
000001c0: 9a6a 1e3d 2e7b 7dbe 35ab 973e 3b12 00be
000001d0: 4f59 3abd 5b04 053f 3a0d bb3d 99d8 3b3e
000001e0: ff7f 813d 73bd cd3d 0ed4 c43c 00aa 0b3e
000001f0: cf53 543e 5ca5 64bd 8f5f 563e 2535 883e
00000200: a881 8d3d e8e4 6dbe 89e4 33be 047a 0d3d
00000210: 33c9 ddbc 40f5 8abd f73e a2b9 77f7 cebd
00000220: 57a3 f3bd d3d0 08be 127b e2bd ede8 50bc
00000230: 449c f7bd 306a 133e f3e4 46be 8ca3 6c3c
00000240: b74e 863d 05c0 4fbe 93e8 ea3c a631 d93b
00000250: 1899 41bc 1342 8cbd ce27 2cbe ba50 35be
00000260: 07b4 60bd 5850 6fbe 4be2 e23d 7a75 12be
00000270: 5553 afbe ffb6 82bd bddb 003e c886 debd
00000280: d9de edbd dae0 d43c 9fce a3be 7eb4 21bd
00000290: ffa0 78be e535 333d e854 b73d a106 893d
000002a0: bab2 88bd f4ec e8bc f72d b0bc 95c6 ae3d
000002b0: 9d01 823c e53d 18bd af4e 30bd 9f02 f7bd
000002c0: e608 84bd d6d8 8ebe 3253 12bd d125 e3bd
000002d0: fc25 94be e17c c1bc 613f 5f3d ddf9 3b3d
000002e0: 773c 893d 12c6 17be 1c19 0bbe 84c2 063e
000002f0: 4b53 afbe 7db9 95be 6f0b 863b fe17 14be
00000300: 8b57 c03c a261 f13a e646 813d da59 cd3d
00000310: 6b8b 3e3e 8802 0f3e 6527 c73d 726c c0bd
00000320: 519d a73e 4a9a 0e3d 5ec6 453d eade dabc
00000330: df71 b73d c45f b33e f48a 0bbd 73d4 4c3d
00000340: 0a64 ce3d 951f eb3d 0769 48bd 9f07 1a3e
00000350: 2555 213e 2641 d43d 5944 de3d f0a2 8d3e
00000360: e4b8 153e 7aac bb3e eae3 c0bd ae60 273d
00000370: 1d2d 4e3d 6146 563c 1988 003e 3a4d 9b3d
00000380: ab27 a63d a226 3cbd 8887 503e 5f32 8b3c
00000390: bde6 4f3e 8e2c a03d 7704 86bd f8ee 30bd
000003a0: 3e62 7a3d bd9f c03d 9e07 273d 57ed 3bbd
000003b0: d56b e3bc abe0 d73d 0226 8d3d dc9a b63e
000003c0: f288 933e 0c24 3c3e 14c7 79bd df32 d13e
000003d0: a389 823e a031 b23d 8a4d 99bb 4564 ddbd
000003e0: d399 423d c721 a03e 851b 6c3e 1fd7 d13d
000003f0: 6615 aa3e be9e 613e 7542 8cbd a29d 2b3e

Self_Att.stages.0.f_key.0.bias f4 [8]
-0.055702653 0.0720048 -0.11624274 -0.013091846 -0.07002042 0.093627624 0.05962284 -0.10058223
00000000: 7728 64bd 4177 933d ac10 eebd 2f7f 56bc
00000010: de66 8fbd d7bf bf3d 1437 743d 0efe cdbd

Self_Att.stages.0.f_key.1.weight f4 [8]
0.9336827 0.71567285 0.83116627 0.74866235 0.84826624 0.7988949 0.9384646 0.76707053
00000000: d405 6f3f 5636 373f 50c7 543f 56a8 3f3f
00000010: fa27 593f 6084 4c3f 373f 703f bc5e 443f

Self_Att.stages.0.f_key.1.bias f4 [8]
1.9974002e-05 0.24276504 0.22593233 -0.03149298 0.15156104 0.0037623441 -0.31769505 0.2774262
00000000: d88d a737 6697 783e ce5a 673e c8fe 00bd
00000010: d132 1b3e a991 763b eda8 a2be cf0a 8e3e

Self_Att.stages.0.f_key.1.running_mean f4 [8]
0.52878016 -0.17779452 -1.0509374 0.92435443 0.33362013 0.48248714 1.2190001 -0.21517123
00000000: 235e 073f c40f 36be 1e85 86bf 7ea2 6c3f
00000010: 42d0 aa3e 8e08 f73e 3208 9c3f d955 5cbe

Self_Att.stages.0.f_key.1.running_var f4 [8]
0.17830913 0.60403085 0.2862581 0.31744665 0.12705585 0.1725958 0.23571852 0.30570042
00000000: ab96 363e c4a1 1a3f 6c90 923e 5e88 a23e
00000010: ee1a 023e f4bc 303e 3260 713e c484 9c3e

Self_Att.stages.0.f_query.0.weight f4 [8, 64, 1, 1]
0.15330185 0.035979997 0.16648431 0.09489727 -0.042696778 -0.1029598 0.07440653 -0.00087756256
-0.10519287 -0.04035796 -0.061370365 -0.02068491 -0.042020626 0.076520324 -0.038010374 -0.22832778
-0.06705898 -0.017480958 0.060109068 -0.093999304 -0.085598536 0.034423195 0.04080334 -0.5222763
0.14984503 0.015215443 -0.07117244 -0.06266879 -0.4209681 -0.072189085 0.08449694 -0.038887482
0.063912936 0.094717465 0.042121824 0.13385452 0.030993387 0.09209903 -0.0911714 0.073468246
0.20421451 -0.032071017 -0.041569203 -0.04314516 -0.24469595 0.11539119 -0.12552887 -0.058617435
0.11285418 -0.1826009 -0.112985425 0.20931211 0.17082196 0.015395906 0.07211793 0.18920372
-0.2595403 -0.12616487 0.012910672 -0.07869443 -0.014867211 -0.09261632 -0.006408422 -0.122490354
0.16331013 -0.050792307 0.11743543 0.15064006 -0.079205446 0.27628905 0.13305975 0.021642575
0.33520818 -0.04633927 -0.021157356 0.02688848 -0.08075095 0.0020547854 0.0009948256 0.055248704
0.038995583 -0.17547522 -0.012808245 -0.04804482 -0.022595592 0.034762144 0.23212264 0.0311177
0.12295889 0.24885435 -0.091051534 -0.07387674 -0.044087943 -0.118570685 0.028009906 -0.18911292
0.21980548 0.00818284 -0.015519241 0.47322282 0.019275425 0.05032386 -0.15510868 -0.025538383
0.08333731 -0.13412295 0.07077602 -0.045406166 0.0013955645 0.15357533 -0.105198875 -0.03749716
0.029400924 -0.12685871 0.24593692 -0.1219548 0.17217563 0.17165652 0.13002597 0.30021042
-0.030853778 0.15384175 0.22245806 0.061560657 0.25404006 -0.053824913 0.016152238 0.30613384
0.14402382 -0.08739589 0.013474731 0.12755248 0.122201554 0.047040865 -0.0013288342 -0.18815692
-0.099070944 -0.114344545 -0.030388704 0.04212699 0.097212486 0.09403088 -0.0402517 0.06296094
0.010450031 -0.06270517 -0.033340804 -0.11057487 0.066772014 0.042038318 0.1862989 -0.27805343
0.20929888 0.17921278 -0.04153193 -0.22660372 0.0010660728 -0.011396373 0.062868826 -0.10676382
0.15745947 -0.033415657 0.08565845 0.4553606 0.2461682 0.0013462703 -0.08887116 -0.02041078
-0.09943293 -0.06095151 -0.0095779 -0.13947132 -0.20168437 0.21034096 -0.016900364 0.16439357
0.11614846 0.014299044 0.11023202 0.07048768 -0.07571615 -0.057204086 -0.06349787 0.5059299
-0.07858563 0.0031784757 0.10354707 0.20453185 0.13645296 0.034440834 -0.036408834 0.32031825
0.031747486 -0.009239199 0.014803138 -0.23998855 -0.004360006 -0.057201 -0.1396167 0.005438345
-0.010213452 0.14083877 0.01768049 -0.09681715 -0.0013537233 -0.06631947 0.15025164 -0.12743767
-0.4200283 0.092933185 -0.1085483 0.05163966 0.08927181 -0.022603152 -0.055609792 0.17585544
-0.1781533 -0.118421644 -0.201794 0.044131115 0.21249272 0.12249751 -0.050235912 0.040247217
-0.08448054 -0.06112859 -0.0048125177 -0.17734575 0.054476544 -0.0240931 -0.3005872 -0.19963673
-0.08560727 0.018635402 -0.033313125 -0.02790609 0.21158636 -0.030395292 -0.079528324 -0.009033358
-0.14022784 0.14433967 -0.040011685 -0.07423165 -0.081096224 -0.09558822 -0.0715778 -0.22363153
-0.11648627 -0.011316387 -0.06973694 -0.08659348 0.006726575 -0.0016743887 -0.18395838 -0.033996075
00000000: 29fb 1c3e c35f 133d dd7a 2a3e 8059 c23d
00000010: d1e2 2ebd 96dc d2bd 7362 983d 3a0c 66ba
00000020: 5c6f d7bd 634e 25bd 7e5f 7bbd 6673 a9bc
00000030: d21d 2cbd b0b6 9c3d c4b0 1bbd c2ce 69be
00000040: 3856 89bd 3a34 8fbc ed34 763d b582 c0bd
00000050: 494e afbd 56ff 0c3d 6721 273d e6b3 05bf
00000060: fa70 193e 324a 793c dbc2 91bd 7f58 80bd
00000070: 2189 d7be dfd7 93bd bb0c ad3d 7b48 1fbd
00000080: c9e4 823d 3bfb c13d ef87 2c3d 2911 093e
00000090: d8e5 fd3c 6b9e bc3d 12b8 babd 8576 963d
000000a0: 9c1d 513e e65c 03bd 7844 2abd fbb8 30bd
000000b0: 9391 7abe 3752 ec3d a48a 00be d618 70bd
000000c0: 1820 e73d bbfb 3abe e764 e7bd ea55 563e
000000d0: f4eb 2e3e 1c3f 7c3c 91b2 933d 9fbe 413e
000000e0: 77e2 84be 5d31 01be 4987 533c 8c2a a1bd
000000f0: 9a95 73bc a0ad bdbd bdfd d1bb 39dc fabd
00000100: c53a 273e 980b 50bd fd81 f03d 6341 1a3e
00000110: 7736 a2bd c275 8d3e d140 083e c54b b13c
00000120: 68a0 ab3e 3fce 3dbd 3152 adbc 3b45 dc3c
00000130: c160 a5bd 94a9 063b cf64 823a 774c 623d
00000140: d5b9 1f3d c7af 33be acd9 51bc a5ca 44bd
00000150: 641a b9bc c062 0e3d 8fb1 6d3e 8cea fe3c
00000160: dfd1 fb3d add3 7e3e 3a79 babd b04c 97bd
00000170: 8f95 34bd 30d5 f2bd 0875 e53c d1a6 41be
00000180: b014 613e 5211 063c 6a44 7ebc 434a f23e
00000190: 7fe7 9d3c 6420 4e3d cfd4 1ebe df35 d1bc
000001a0: c0ac aa3d 8757 09be 05f3 903d d1fb 39bd
000001b0: 60eb b63a da42 1d3e 8272 d7bd 9f96 19bd
000001c0: 35da f03c 40e7 01be e3d6 7b3e 70c3 f9bd
000001d0: cf4e 303e bac6 2f3e 8725 053e 2eb5 993e
000001e0: 10c1 fcbc b188 1d3e 0ccc 633e 0727 7c3d
000001f0: 8a11 823e 8377 5cbd b351 843c 93bd 9c3e
00000200: fb7a 133e 9efc b2bd 1ec5 5c3c 1e9d 023e
00000210: cf44 fa3d ecad 403d 472c aeba 35ac 40be
00000220: b5e5 cabd 792d eabd bbf1 f8bc 5a8d 2c3d
00000230: 5717 c73d 4393 c03d f7de 24bd aaf1 803d
00000240: 9b36 2b3c 916b 80bd 5e90 08bd 1475 e2bd
00000250: c4bf 883d 5f30 2c3d 24c5 3e3e 055d 8ebe
00000260: 7252 563e 8e83 373e 631d 2abd ce0a 68be
00000270: 78bb 8b3a dab7 3abc 5fc1 803d fda6 dabd
00000280: 0e3d 213e dbde 08bd b36d af3d 0625 e93e
00000290: 8413 7c3e 5675 b03a 1502 b6bd 8234 a7bc
000002a0: 7ea3 cbbd 4aa8 79bd a0ec 1cbc 92d1 0ebe
000002b0: 5986 4ebe 9f63 573e a272 8abc ca56 283e
000002c0: 3edf ed3d 8a46 6a3c 53c1 e13d d85b 903d
000002d0: 1211 9bbd d54e 6abd 2c0b 82bd 9f84 013f
000002e0: 81f1 a0bd f94d 503b 7c10 d43d cc70 513e
000002f0: 53ba 0b3e d511 0d3d 6e21 15bd c100 a43e
00000300: a709 023d 0260 17bc dc88 723c 8fbf 75be
00000310: 62de 8ebb 994b 6abd aef7 0ebe 2534 b23b
00000320: 5356 27bc 0a38 103e add6 903c 1248 c6bd
00000330: 6b6f b1ba 81d2 87bd 91db 193e 057f 02be
00000340: f30d d7be c153 be3d 924e debd 1c84 533d
00000350: 24d4 b63d 3f2a b9bc 18c7 63bd 7313 343e
00000360: d26d 36be 0c87 f2bd 16a3 4ebe d4c2 343d
00000370: b197 593e f9df fa3d 2cc4 4dbd 44da 243d
00000380: 2204 adbd f961 7abd 53b2 9dbb 209a 35be
00000390: cc22 5f3d e55e c5bc 91e6 99be 926d 4cbe
000003a0: dd52 afbd 45a9 983c 5873 08bd 509b e4bc
000003b0: 18aa 583e 8cff f8bc bfdf a2bd a600 14bc
000003c0: e397 0fbe c7cd 133e 4be3 23bd c306 98bd
000003d0: c715 a6bd c2c3 c3bd 6297 92bd aaff 64be
000003e0: 5b90 eebd 5e68 39bc 3ed2 8ebd ec57 b1bd
000003f0: 9a6a dc3b 2977 dbba 965f 3cbe 783f 0bbd

Self_Att.stages.0.f_query.0.bias f4 [8]
0.10949937 0.0022838025 -0.09582002 0.122117124 0.026655981 0.012636404 0.10024187 -0.1047293
00000000: 3541 e03d d9ab 153b 493d c4bd 8b18 fa3d
00000010: a55d da3c eb08 4f3c 9c4b cd3d 517c d6bd

Self_Att.stages.0.f_query.1.weight f4 [8]
0.78690153 0.7042118 0.7908495 0.7504514 0.83079034 0.6992411 0.8914851 0.7393671
00000000: 6172 493f 3947 343f 1d75 4a3f 951d 403f
00000010: adae 543f 7701 333f 5e38 643f 2a47 3d3f

Self_Att.stages.0.f_query.1.bias f4 [8]
-0.5413668 -0.3539672 -0.29728538 -0.17858338 -0.22759843 -0.4381589 -0.7491713 -0.3802046
00000000: 0497 0abf 303b b5be ca35 98be 90de 36be
00000010: 900f 69be 5d56 e0be b1c9 3fbf 2daa c2be

Self_Att.stages.0.f_query.1.running_mean f4 [8]
-0.14154837 -0.19466053 -0.30482405 -0.13653128 -0.012903952 -0.057397176 0.19921392 -0.1882165
00000000: 0ef2 10be 1755 47be e611 9cbe dbce 0bbe
00000010: 196b 53bc 4d19 6bbd bcfe 4b3e d4bb 40be

Self_Att.stages.0.f_query.1.running_var f4 [8]
0.15569584 0.63033676 0.20507857 0.48197722 0.25874674 0.36060026 0.2799525 0.299286
00000000: bb6e 1f3e c05d 213f 1e00 523e b8c5 f63e
00000010: 747a 843e 99a0 b83e ef55 8f3e 043c 993e

Self_Att.stages.0.f_value.weight f4 [64, 64, 1, 1]
0.02974606 0.0029933602 0.015928341 -0.0014741188 -0.012428682 -0.019687302 0.00083980017 0.03063337
0.011220087 -0.010620519 0.0020724358 -0.00096541917 0.034320675 0.010897239 -0.026756883 0.025812918
0.030934285 0.014482865 -4.5891725e-06 0.012777097 -0.014882706 0.011780416 -0.02915199 -0.0154411625
0.015997266 0.008516444 -0.02583838 0.013465911 -0.009013202 0.023182523 0.10758095 -0.028844211
-0.016851755 0.013259623 0.018737914 0.0362261 -0.03975039 -0.0068632006 0.007874101 -0.036950212
-0.03334771 0.012247912 0.0012990523 -0.036745813 0.0051476955 0.0020022036 -0.007466262 0.018635629
0.010573012 -0.0050745355 -0.033748142 -0.018112322 0.025371846 -0.020701617 0.0073265797 0.00508718
-0.042020295 -0.012966365 0.028976187 0.008103905 0.014720869 0.0028580702 -0.006833198 -0.14747308
0.021474 -0.004051315 0.024720049 -0.041561536 0.0342371 -0.07060909 0.04274474 0.019053351
-0.037175994 0.00044106995 -0.011059003 -0.029031806 -0.018390078 -0.031413887 -0.019726861 -0.008301262
0.014672908 -0.011209149 0.0020030183 0.0004235976 0.0012155351 -0.012226037 -0.010445656 -0.016185747
-0.04016136 -0.017769374 0.028325655 -0.043548603 0.025068404 -0.02029874 0.041784417 -0.04622452
-0.01886897 0.020385679 0.019903725 -0.03987444 0.052888844 0.0066704927 0.010718146 -0.026599348
-0.03398423 -0.05108621 -0.035519466 -0.014456709 -0.02466638 0.028978448 0.054951735 0.04765942
0.0057890494 0.01886065 -0.016361445 -0.0057113403 2.402992e-05 -0.0973193 -0.0072649634 -0.006405593
0.013390139 -0.0035281135 0.025419034 0.056764483 0.0048750243 0.009089929 -0.08701275 -0.052177228
0.017264672 0.026560742 0.028132651 0.007488835 -0.0060634147 0.06786187 -0.070511185 -0.02534953
0.03173186 -0.020266417 0.0051457807 -0.03631913 -0.011373816 -0.03136886 0.0026367935 0.026835833
0.002762679 0.00900621 -0.010799106 0.015252445 0.041503802 0.0483201 0.015138772 0.010393132
-0.023155676 -0.03809244 7.0225506e-05 0.014434254 -0.005963994 0.02778924 -0.013032945 0.043253046
0.009612945 0.02379621 -0.031572714 -0.014592796 -0.0057436787 0.019067341 0.03126378 -0.022486893
-0.028158708 -0.007479569 -0.028024172 0.05471662 -0.012760119 0.006534958 -0.009516848 -0.0023604915
-0.10037275 -0.009276179 -0.015225631 -0.013360631 -0.029161084 -0.06310667 -0.014098423 0.021867307
0.047014162 0.0020130067 -0.026789635 -0.06718506 0.0038075321 0.021050846 0.066780075 0.09291289
0.022396615 -0.012853385 -0.011911619 0.02595369 -0.047710538 0.007874023 -0.05909352 -0.021869216
-0.0031393564 0.036958955 -0.0025664675 0.014415044 0.008848972 -0.033551894 -0.019935502 -0.068959795
-0.011098423 -0.03887335 0.017766185 0.008816231 0.0042242915 -0.020425702 0.06087484 0.031375878
0.00042311777 0.067256145 0.0340919 0.008897683 -0.0095953215 -0.009257378 0.010674212 -0.0350421
-0.021283947 -0.0055493703 0.05019857 0.019992534 0.049695905 0.040557154 -0.028360974 0.029109672
0.038016368 0.06267015 0.0758574 0.024727497 0.01038088 0.009060801 0.0085881045 0.06309775
0.020755053 0.032287948 -0.01261482 -0.055566955 0.018665612 0.029816516 0.0044576526 -0.046587657
0.017773934 -0.039721895 -0.03070688 -0.06726974 -0.04287111 0.010117586 -0.034112718 -0.022436494
00000000: 02ae f33c 402c 443b 277c 823c 3837 c1ba
00000010: aca1 4bbc 4447 a1bc 0926 5c3a d5f2 fa3c
00000020: 75d4 373c af01 2ebc b4d1 073b 2f14 7dba
00000030: d693 0c3d 558a 323c 4031 dbbc 9d75 d33c
00000040: e669 fd3c 8a49 6d3c b1fc 99b6 0757 513c
00000050: 98d6 73bc a502 413c 27d0 eebc eefc 7cbc
00000060: b30c 833c 8e88 0b3c 03ab d3bc 20a0 5c3c
00000070: 1cac 13bc 46e9 bd3c 6753 dc3d b24a ecbc
00000080: b10c 8abc e43e 593c 4180 993c d261 143d
00000090: 4ed1 22bd b3e4 e0bb 6002 013c 1b59 17bd
000000a0: 9c97 08bd 77ab 483c f644 aa3a c782 16bd
000000b0: 00ae a83b 6737 033b 8ca7 f4bb bfa9 983c
000000c0: 6d3a 2d3c 4a48 a6bb 7e3b 0abd 4b60 94bc
000000d0: 9ed8 cf3c 7096 a9bc ce13 f03b 5cb2 a63b
000000e0: 791d 2cbd e070 54bc 785f ed3c 3ec6 043c
000000f0: cd2f 713c 764e 3b3b 05e9 dfbb 2f03 17be
00000100: 3eea af3c e5c0 84bb b381 ca3c 6e3c 2abd
00000110: 343c 0c3d 809b 90bd 1c15 2f3d c615 9c3c
00000120: db45 18bd 683f e739 d230 35bc 1cd4 edbc
00000130: caa6 96bc d9ab 00bd 3a9a a1bc 0402 08bc
00000140: a366 703c 94a6 37bc 1245 033b 4f16 de39
00000150: 9752 9f3a b74f 48bc 4224 2bbc f997 84bc
00000160: 3d80 24bd 1491 91bc 340b e83c 0560 32bd
00000170: 415c cd3c 8b49 a6bc 2326 2b3d ec55 3dbd
00000180: 1993 9abc deff a63c 230d a33c 6153 23bd
00000190: f9a1 583d 2694 da3b 2a9b 2f3c e0e6 d9bc
000001a0: 0c33 0bbd c63f 51bd dc7c 11bd d5db 6cbc
000001b0: 2611 cabc 3664 ed3c 1215 613d 8636 433d
000001c0: 11b2 bd3b a681 9a3c 7008 86bc 3226 bbbb
000001d0: dc93 c937 574f c7bd ee0e eebb 02e6 d1bb
000001e0: 5062 5b3c ec37 67bb 943b d03c e081 683d
000001f0: abbe 9f3b eded 143c be33 b2bd cab7 55bd
00000200: a46e 8d3c ea95 d93c 7276 e63c e764 f53b
00000210: 9caf c6bb 2afb 8a3d 2b68 90bd d1a9 cfbc
00000220: 44f9 013d c205 a6bc f09d a83b 5ec3 14bd
00000230: 3e59 3abc a27c 00bd 0ece 2c3b d2d6 db3c
00000240: 100e 353b c88e 133c bcee 30bc 64e5 793c
00000250: e4ff 293d 4ceb 453d 9d08 783c f547 2a3c
00000260: f9b0 bdbc d206 1cbd 0846 9338 a67d 6c3c
00000270: 9c6d c3bb 43a6 e33c 2288 55bc 1b2a 313d
00000280: 9d7f 1d3c 45f0 c23c 6452 01bd 9f16 6fbc
00000290: 7835 bcbb 1d33 9c3c 730e 003d 6f36 b8bc
000002a0: 17ad e6bc 2c17 f5bb f392 e5bc 891e 603d
000002b0: d10f 51bc 3323 d63b 8eec 1bbc 7ab2 1abb
000002c0: 3a90 cdbd 1dfb 17bc ed74 79bc 8ce6 5abc
000002d0: 3ae3 eebc 123e 81bd 12fd 66bc 1123 b33c
000002e0: ec91 403d a6ec 033b f075 dbbc 5298 89bd
000002f0: ca87 793b d372 ac3c fec3 883d 1d49 be3d
00000300: 1b79 b73c 0197 52bc f428 43bc d59c d43c
00000310: 206c 43bd 0c02 013c 0c0c 72bd 1227 b3bc
00000320: a9bd 4dbb 4662 173d 2e32 28bb 142d 6c3c
00000330: 47fb 103c b66d 09bd c74f a3bc cb3a 8dbd
00000340: 29d6 35bc a939 1fbd 648a 913c f471 103c
00000350: ed6b 8a3b cd53 a7bc e557 793d fe83 003d
00000360: e8d5 dd39 97bd 893d f3a3 0b3d 96c7 113c
00000370: b235 1dbc 42ac 17bc e4e2 2e3c 4e88 0fbd
00000380: ac5b aebc 7ed7 b5bb 049d 4d3d 62c7 a33c
00000390: ef8d 4b3d 421f 263d 4655 e8bc 6877 ee3c
000003a0: 0db7 1b3d 3559 803d 205b 9b3d 5291 ca3c
000003b0: 9114 2a3c c173 143c 1fb5 0c3c 6539 813d
000003c0: 8006 aa3c 5e40 043d 64ae 4ebc 2d9a 63bd
000003d0: a0e8 983c c441 f43c 8011 923b b3d2 3ebd
000003e0: a49a 913c 6db3 22bd ff8c fbbc b8c4 89bd
000003f0: 9e99 2fbd 3bc4 253c c7b9 0bbd bdcc b7bc

Self_Att.stages.0.f_value.bias f4 [64]
-0.045756508 -0.21941629 0.10925142 -0.11470567 -0.07899341 0.049001765 -0.025822358 0.48444235
-0.06495363 0.017745664 -0.05074989 0.14936657 0.0495563 -0.018872544 0.17053361 0.11910744
-0.2463099 0.15659665 0.075253464 0.0832114 -0.061288696 -0.1902101 0.04340588 -0.37198132
0.17302012 -0.15382345 0.06394896 -0.13283318 -0.0078467345 0.068235375 0.028359829 -0.019552125
0.113864034 0.035821706 0.096790835 0.105353214 0.18678713 -0.11814395 -0.31704068 -0.30755597
0.11080739 0.07735803 -0.10492704 -0.119134516 0.060243603 0.101897575 -0.06751363 0.007113522
0.07674126 -0.096649244 0.10603675 -0.059367098 -0.042507492 0.043687496 0.07894307 0.10842221
-0.29545397 -0.061916526 -0.071796544 0.03647143 -0.0070005283 -1.8184519e-05 -0.0004938458 -0.11104183
00000000: 2d6b 3bbd aaae 60be 35bf df3d ceea eabd
00000010: 4cc7 a1bd 13b6 483d 6989 d3bc d408 f83e
00000020: 6906 85bd 5b5f 913c 1edf 4fbd 8df3 183e
00000030: 8cfb 4a3d 989a 9abc 5da0 2e3e 9aee f33d
00000040: aa38 7cbe df5a 203e 7d1e 9a3d bd6a aa3d
00000050: db09 7bbd 70c6 42be 5dca 313d 5674 bebe
00000060: 302c 313e e583 1dbe acf7 823d 6c05 08be
00000070: 978f 00bc fdbe 8b3d df52 e83c c72b a0bc
00000080: 8c31 e93d c8b9 123d 463a c63d 6dc3 d73d
00000090: 2045 3f3e 75f5 f1bd 2853 a2be fa77 9dbe
000000a0: fcee e23d e36d 9e3d fde3 d6bd ccfc f3bd
000000b0: ffc1 763d adaf d03d 9644 8abd 8c18 e93b
000000c0: 862a 9d3d 0af0 c5bd cc29 d93d ea2a 73bd
000000d0: 561c 2ebd a9f1 323d e7ac a13d 770c de3d
000000e0: be45 97be 2f9c 7dbd 110a 93bd 1163 153d
000000f0: b064 e5bb f58a 98b7 6e75 01ba e669 e3bd

Self_Att.stages.1.f_key.0.weight f4 [8, 64, 1, 1]
-0.110128395 0.010299249 0.20544463 0.07974627 0.38943574 0.08541174 -0.061334647 -0.12374524
0.25797188 0.1767115 -0.0864971 -0.2570783 0.12860744 0.018239843 -0.03999901 -0.10919402
0.06897755 -0.19458488 0.048728537 0.052769154 -0.12764753 0.13050161 0.19896261 0.06726548
0.17684634 0.0022926023 -0.1654355 -0.09789077 -0.20913371 0.034179088 0.07733241 -0.13741264
0.06265236 0.08416639 0.0746602 0.14749216 0.023280233 -0.24959941 -0.050158117 0.12922555
-0.18199727 -0.2113479 0.36883327 0.11004448 0.05314829 -0.026435733 -0.012677868 -0.020730417
0.20818971 0.12153693 0.13167585 0.11812676 -0.16198167 -0.13792136 0.021479426 0.11901177
0.022967797 0.02796272 0.026523933 -0.05891609 -0.14872748 0.04292339 -0.21075647 0.024524054
0.15246552 0.064975835 -0.25550205 -0.05227373 -0.3110155 0.0069354996 -0.058849014 0.2039513
-0.053531706 -0.13010219 0.09378769 0.18498458 -0.07141403 -0.048451554 -0.07346356 0.10214945
-0.044867054 0.10798282 -0.44765246 0.13440336 0.19566947 -0.17213655 -0.013489173 0.14039522
-0.06579675 0.14722769 0.06135324 -0.05990627 0.16454668 -0.095819965 -0.036580056 0.055193212
-0.04115018 -0.10653457 -0.047017377 -0.06436937 0.123831 0.14466889 -0.06701854 -0.16161929
-0.15155594 0.1693916 -0.51544255 -0.058519367 -0.11590279 0.036858987 0.0028929044 0.031088274
-0.14119443 -0.05958231 -0.009745377 -0.043334734 -0.11072475 0.04702551 -0.15604514 -0.2088031
-0.0020154468 0.024898386 0.0151637215 0.15821746 0.03921612 0.037011903 -0.03495811 0.16129228
-0.10945791 0.09474153 -0.05457662 0.03395526 0.083644345 0.117511764 0.39124945 -0.0057238583
0.11545684 -0.038396668 0.042967 -0.0022951479 0.059781194 -0.08587921 0.119544506 -0.01656412
-0.04044279 -0.027638186 0.21312201 -0.015533432 -0.035016786 0.01908305 0.31534716 0.13303027
-0.07021042 0.13913494 -0.0015092021 0.0033280693 0.1454183 0.044598248 0.114406615 -0.019773506
0.1299635 -0.13663971 -0.027987396 0.05076455 0.11307076 0.04432442 0.019141866 0.18511148
0.23772113 -0.03016384 0.52851975 -0.05408893 0.011036671 0.0012042007 0.012460121 -0.08392688
0.054105945 -0.120675445 0.2539266 0.093818486 0.09796428 0.65224594 0.06793808 0.15479434
-0.019911928 -0.083245315 0.036981065 -0.08688702 0.17911687 0.021431234 0.21226573 -0.073704846
-0.16095345 -0.16339476 -0.091847874 -0.08273887 0.19487378 -0.19245467 -0.087157674 -0.13261011
-0.09928437 0.15701525 -0.14771336 0.06832019 -0.040412433 -0.1410318 0.09969362 0.035277955
-0.08456594 -0.15065192 0.0335026 0.17033333 -0.039310377 0.1463753 0.009335751 -0.085624695
0.20683418 -0.20210202 -0.06976555 -0.0025137714 0.060431782 -0.09561139 0.0773009 -0.16331811
-0.093163386 0.0016240636 0.08294856 0.04150216 -0.115325324 -0.06330457 -0.06785858 0.16439158
0.038071565 -0.12608662 0.34267694 0.12678295 0.08617432 0.06684848 -0.09040419 0.05077586
0.025888007 0.123222396 -0.0047245594 0.0012870819 0.14322023 -0.3862988 0.254214 0.058856003
-0.07910949 -0.28861174 -0.21291254 -0.036783297 -0.3366735 0.005433639 -0.19501077 -0.28344673
00000000: ff8a e1bd 2ebe 283c 1460 523e 0352 a33d
00000010: 1f64 c73e 5aec ae3d 0a3a 7bbd 256e fdbd
00000020: e414 843e dcf3 343e 6425 b1bd c49f 83be
00000030: abb1 033e b96b 953c 00d6 23bd 1da1 dfbd
00000040: 1a44 8d3d 4241 47be 9397 473d 7824 583d
00000050: 09b6 02be 37a2 053e dbbc 4b3e 7cc2 893d
00000060: 3517 353e 7c3f 163b ec67 29be f57a c8bd
00000070: 2627 56be 5fff 0b3d 7460 9e3d e6b5 0cbe
00000080: e14f 803d 6e5f ac3d 72e7 983d 2f08 173e
00000090: 30b6 be3c fd96 7fbe 9972 4dbd b453 043e
000000a0: 7e5d 3abe 956b 58be b7d7 bc3e 005f e13d
000000b0: 05b2 593d c08f d8bc d5b6 4fbc d6d2 a9bc
000000c0: af2f 553e 5be8 f83d 09d6 063e 71ec f13d
000000d0: 86de 25be 423b 0dbe 9ff5 af3c 71bc f33d
000000e0: f626 bc3c 1312 e53c b848 d93c ff51 71bd
000000f0: 044c 18be 70d0 2f3d 8bd0 57be abe6 c83c
00000100: ec1f 1c3e 0d12 853d 2ad1 82be fb1c 56bd
00000110: 6c3d 9fbe 3043 e33b aa0b 71bd 9cd8 503e
00000120: 1044 5bbd 8239 05be c313 c03d 996c 3d3e
00000130: 8541 92bd 2375 46bd 1074 96bd bb33 d13d
00000140: 84c6 37bd 1926 dd3d b432 e5be 09a1 093e
00000150: 945d 483e 9044 30be b101 5dbc c4c3 0f3e
00000160: 72c0 86bd dbc2 163e 894d 7b3d 4760 75bd
00000170: ed7e 283e 423d c4bd f8d4 15bd 4712 623d
00000180: 178d 28bd cc2e dabd 4b95 40bd 17d4 83bd
00000190: 1b9b fd3d 1524 143e 0441 89bd 877f 25be
000001a0: 7b31 1bbe fe74 2d3e 0bf4 03bf 01b2 6fbd
000001b0: 715e edbd 73f9 163d e296 3d3b d6ac fe3c
000001c0: 4695 10be 950c 74bd 13ab 1fbc c37f 31bd
000001d0: a8c3 e2bd d29d 403d 4cca 1fbe 7bd0 55be
000001e0: 9615 04bb b3f7 cb3c 4271 783c c203 223e
000001f0: 15a1 203d cb99 173d 3c30 0fbd ce29 253e
00000200: 782b e0bd d907 c23d bc8b 5fbd ac14 0b3d
00000210: ba4d ab3d 02aa f03d d951 c83e 348f bbbb
00000220: a374 ec3d d345 1dbd 2afe 2f3d 316a 16bb
00000230: 20dd 743d 70e1 afbd c0d3 f43d 7ab1 87bc
00000240: 57a7 25bd 7a69 e2bc a83c 5a3e f07f 7ebc
00000250: c36d 0fbd 0e54 9c3c 2f75 a13e 1639 083e
00000260: 7bca 8fbd 6479 0e3e 6bd0 c5ba bd1b 5a3b
00000270: 89e8 143e a7ac 363d 044e ea3d 0cfc a1bc
00000280: 2715 053e 48eb 0bbe d345 e5bc 7dee 4f3d
00000290: a591 e73d 868d 353d 67cf 9c3c dd8d 3d3e
000002a0: 2b6d 733e 281a f7bc 124d 073f 5b8c 5dbd
000002b0: 27d3 343c 45d6 9d3a 8925 4c3c dbe1 abbd
000002c0: 329e 5d3d b024 f7bd ab02 823e e823 c03d
000002d0: 7fa1 c83d 97f9 263f 1f23 8b3d 6882 1e3e
000002e0: 571e a3bc 857c aabd 7579 173d d2f1 b1bd
000002f0: 6a6a 373e 8e90 af3c 305c 593e 91f2 96bd
00000300: fbd0 24be f550 27be bd1a bcbd ff72 a9bd
00000310: fe8c 473e d612 45be b97f b2bd f2ca 07be
00000320: 9b55 cbbd 9bc8 203e 2c42 17be 75eb 8b3d
00000330: 8287 25bd a46a 10be 2b2c cc3d 9e7f 103d
00000340: e830 adbd 7f44 1abe 063a 093d dc6b 2e3e
00000350: eb03 21bd 68e3 153e faf4 183c 005c afbd
00000360: 57cc 533e d5f3 4ebe 3ee1 8ebd 16be 24bb
00000370: 5187 773d e8cf c3bd ef4f 9e3d dd3c 27be
00000380: 72cc bebd 88de d43a efe0 a93d 2bfe 293d
00000390: af2f ecbd d4a5 81bd 70f9 8abd 4456 283e
000003a0: eef0 1b3d da1c 01be 5a73 af3e 64d3 013e
000003b0: 297c b03d dbe7 883d d525 b9bd 59fa 4f3d
000003c0: 1613 d43c 065c fc3d 7ad0 9abb 4db3 a83a
000003d0: 53a8 123e f5c8 c5be 5628 823e fe12 713d
000003e0: 2804 a2bd ebc4 93be bf05 5abe 15aa 16bd
000003f0: 7860 acbe ab0c b23b e7b0 47be ee1f 91be

Self_Att.stages.1.f_key.0.bias f4 [8]
-0.029980393 -0.08446841 0.13723391 0.076006524 -0.057527486 0.05424255 -0.08735243 0.12158424
00000000: 7199 f5bc c6fd acbd 0c87 0c3e 4fa9 9b3d
00000010: f1a1 6bbd 702d 5e3d d5e5 b2bd 2801 f93d

Self_Att.stages.1.f_key.1.weight f4 [8]
0.918096 0.9344416 0.9919079 1.1952757 0.99179065 0.8171685 0.96951044 0.9879398
00000000: 5708 6b3f 9137 6f3f aded 7d3f cbfe 983f
00000010: fee5 7d3f f431 513f d631 783f 9fe9 7c3f

Self_Att.stages.1.f_key.1.bias f4 [8]
0.15026145 -0.21423408 0.20516099 -0.026828194 0.08063393 0.05695929 -0.17864938 0.106493235
00000000: 23de 193e 2e60 5bbe b915 523e cdc6 dbbc
00000010: 6723 a53d 254e 693d ddef 36be 2019 da3d

Self_Att.stages.1.f_key.1.running_mean f4 [8]
-0.40957367 0.009522426 0.4289406 -0.30311587 0.35431656 0.003000621 -0.2735741 -0.14554867
00000000: a4b3 d1be f303 1c3c 1a9e db3e 0132 9bbe
00000010: fb68 b53e 11a6 443b e811 8cbe b60a 15be

Self_Att.stages.1.f_key.1.running_var f4 [8]
0.16785023 0.088420905 0.274913 0.09993731 0.06644856 0.12905322 0.19018048 0.16027284
00000000: eee0 2b3e 0516 b53d 66c1 8c3e efab cc3d
00000010: 2f16 883d 8726 043e acbe 423e 901e 243e

Self_Att.stages.1.f_query.0.weight f4 [8, 64, 1, 1]
-0.017164884 -0.019587424 -0.034076 0.23183307 -0.05575944 0.23132958 -0.2708708 -0.12146389
0.106796265 -0.1448548 -0.0068747904 0.08176575 -0.0007233742 0.056955814 -0.03997461 0.0834505
0.44191012 -0.10047136 0.05989751 0.14389782 -0.104627945 0.040208824 0.22649059 -0.0072122947
0.04313884 0.2346135 -0.042285316 -0.049199384 -0.17135175 -0.056111813 -0.06548645 -0.09426498
-0.17504568 0.11585203 0.025546825 0.18511297 0.051644348 -0.123214215 0.041024398 -0.06062668
-0.011485071 -0.09524366 0.013178079 -0.05738568 -0.048032954 0.11829309 -0.03540027 0.16627319
-0.049432524 -0.19098745 0.24595422 -0.11467016 -0.04978639 -0.071533635 -0.00888383 -0.032272525
0.063109055 -0.020436246 0.25979364 0.25480068 -0.1911834 -0.09190886 0.025062084 -0.0062454212
-0.02836828 0.10329047 -0.09784156 -0.11625479 0.0049039107 -0.019243622 0.09630602 0.19750087
-0.028895186 0.33098853 0.018043807 0.002284078 -0.085030526 -0.062534064 -0.04299932 0.026878633
-0.23059183 0.033588305 -0.039805155 0.102376685 0.008320132 -0.08295987 -0.2174052 0.093661144
-0.13322674 -0.19676019 0.15112863 0.07628316 0.12826502 -0.038550176 -0.07548348 -0.0035540175
-0.11044182 -0.08001903 0.07061712 -0.2123958 -0.15742312 0.052763324 0.092756644 -0.029851064
-0.058269646 -0.07279413 -0.023455389 0.038187794 0.055575863 -0.28631267 -0.022259949 -0.01630705
-0.011127342 0.22397575 -0.052870985 -0.13355853 -0.0968588 -0.021425443 -0.007169562 -0.023903918
-0.011414697 -0.16832829 -0.36988312 -0.14923938 -0.0046891742 0.10472992 0.046749238 -0.15577221
0.3207607 0.0039603314 -0.044347014 -0.11488305 -0.0063206647 0.22934987 0.059370194 -0.11557313
0.32282585 0.035942003 -0.10875109 0.007342739 0.160258 -0.0092865545 -0.101881534 0.046497766
-0.048885792 -0.045552727 0.21789968 0.06602217 0.056047313 0.09894533 0.30932775 0.13166362
0.34813046 0.22136009 -0.028307112 -0.08417045 -0.055959083 -0.028056605 0.15201028 -0.12654759
-0.031998813 -0.101959534 0.14795461 0.15513197 0.40354076 0.05662217 0.08578364 0.08692852
0.0096328175 -0.010699546 0.41076773 -0.16462773 -0.1515207 -0.04486292 -0.08965459 -0.17971687
0.1218226 -0.048679084 0.11709822 0.015265759 0.0559478 0.24859013 0.1096628 0.009080047
-0.0650265 -0.0062738964 0.039645094 0.17833775 0.052636605 0.16020091 0.002469803 -0.015908636
-0.15294956 -0.07136761 0.051008753 0.0044769137 0.11716887 -0.1929701 -0.09596607 0.11008665
-0.089635104 0.18944414 0.1309955 0.23310626 -0.12815252 0.12649736 -0.026803758 0.02353104
0.046396174 -0.010308064 0.20550263 0.20970349 0.12307609 0.11939872 0.01428821 0.09547249
-0.00039320107 -0.01986954 0.22228554 0.14246723 0.080062225 0.024549231 0.103010066 -0.060532063
-0.49703655 0.15973127 -0.06878341 -0.17910357 -0.122909375 0.06933782 0.1283816 0.062453363
0.005618366 0.017102325 0.14952458 0.055382226 0.017396994 0.12777132 -0.014724135 0.32058007
-0.10651363 0.099891804 -0.1119399 -0.048890114 0.1040105 0.022954397 0.24298863 -0.06170419
0.22039062 -0.13350196 -0.11143685 0.046168897 -0.34571302 -0.008385833 -0.050930236 -0.58598197
00000000: 5f9d 8cbc ce75 a0bc 4793 0bbd a665 6d3e
00000010: 0364 64bd a9e1 6c3e 94af 8abe 0fc2 f8bd
00000020: 00b8 da3d d154 14be ec45 e1bb cd74 a73d
00000030: d2a0 3dba 804a 693d 6bbc 23bd 19e8 aa3d
00000040: 0b42 e23e eec3 cdbd 1757 753d f359 133e
00000050: 2d47 d6bd 02b2 243d 26ed 673e 1d55 ecbb
00000060: 5ab2 303d 853e 703e 5e33 2dbd 4b85 49bd
00000070: d576 2fbe 80d5 65bd c31d 86bd ff0d c1bd
00000080: 2d3f 33be d443 ed3d 9347 d13c 418e 3d3e
00000090: 0689 533d bc57 fcbd 3309 283d ae53 78bd
000000a0: e12b 3cbc 1c0f c3bd dfe8 573c 3f0d 6bbd
000000b0: 34be 44bd a643 f23d e0ff 10bd 8543 2a3e
000000c0: c279 4abd 3792 43be 6cdb 7b3e 30d8 eabd
000000d0: d0ec 4bbd 3a80 92bd 7c8d 11bc 3230 04bd
000000e0: 523f 813d ea69 a7bc ac03 853e 3c75 823e
000000f0: 95c5 43be b63a bcbd 004f cd3c 64a6 ccbb
00000100: 9864 e8bc f489 d33d 2861 c8bd fe16 eebd
00000110: fcb0 a03b cda4 9dbc 173c c53d ab3d 4a3e
00000120: 99b5 ecbc 5477 a93e 9bd0 933c 78b0 153b
00000130: 7c24 aebd dc11 80bd 0e20 30bd 9430 dc3c
00000140: 4420 6cbe e493 093d bb0a 23bd deaa d13d
00000150: 2a51 083c dde6 a9bd 789f 5ebe 6ad1 bf3d
00000160: 976c 08be 817b 49be 77c1 1a3e 583a 9c3d
00000170: e857 033e cae6 1dbd 1597 9abd 85ea 68bb
00000180: 522f e2bd 04e1 a3bd b59f 903d 497e 59be
00000190: 8733 21be 5b1e 583d 32f7 bd3d 388a f4bc
000001a0: 27ac 6ebd 1715 95bd 8425 c0bc ce6a 1c3d
000001b0: 84a3 633d 9397 92be 7f5a b6bc 5d96 85bc
000001c0: 744f 36bc e659 653e 3f8f 58bd 91c3 08be
000001d0: e85d c6bd 6984 afbc a5ee eabb 26d2 c3bc
000001e0: b604 3bbc 405e 2cbe 5261 bdbe 35d2 18be
000001f0: a5a7 99bb a47c d63d 217c 3f3d c082 1fbe
00000200: bf3a a43e abc5 813b 37a5 35bd ce47 ebbd
00000210: 941d cfbb b1da 6a3e 292e 733d 9bb1 ecbd
00000220: 6e49 a53e ec37 133d e4b8 debd 5c9b f03b
00000230: ac1a 243e a226 18bc 44a7 d0bd 7174 3e3d
00000240: 783c 48bd 7f95 3abd 1821 5f3e a236 873d
00000250: de91 653d d9a3 ca3d 3560 9e3e d4d2 063e
00000260: 283e b23e 38ac 623e 51e4 e7bc 8f61 acbd
00000270: 5a35 65bd f7d6 e5bc 95a8 1b3e b195 01be
00000280: 3011 03bd 29d0 d0bd 6a81 173e eada 1e3e
00000290: e59c ce3e a6ec 673d 55af af3d 9407 b23d
000002a0: f7d2 1d3c 264d 2fbc 2650 d23e 2c94 28be
000002b0: 3e28 1bbe 2ec2 37bd d39c b7bd b307 38be
000002c0: 217e f93d b863 47bd 31d1 ef3d 3c1d 7a3c
000002d0: 8529 653d 698e 7e3e e496 e03d 7ac4 143c
000002e0: 9d2c 85bd 4295 cdbb e562 223d 2c9e 363e
000002f0: 7b99 573d b50b 243e 6bdc 213b d452 82bc
00000300: cf9e 1cbe 2e29 92bd 8eee 503d 13b3 923b
00000310: 3cf6 ef3d f499 45be dc89 c4bd 1c75 e13d
00000320: 9c92 b7bd a5fd 413e af23 063e 68b3 6e3e
00000330: 6a3a 03be 8688 013e 8e93 dbbc 2bc4 c03c
00000340: ea09 3e3d 27e3 28bc 486f 523e 83bc 563e
00000350: 510f fc3d 5187 f43d 1919 6a3c 1587 c33d
00000360: 8e26 ceb9 72c5 a2bc d29e 633e eee2 113e
00000370: aaf7 a33d 781b c93c f1f6 d23d 78f0 77bd
00000380: 937b febe 9890 233e 51de 8cbd ed66 37be
00000390: e9b7 fbbd fd00 8e3d 7776 033e 19cf 7f3d
000003a0: 451a b83b 2d1a 8c3c f91c 193e 79d8 623d
000003b0: 2484 8e3c 7cd6 023e 803d 71bc 1223 a43e
000003c0: d123 dabd 1394 cc3d bf40 e5bd 0041 48bd
000003d0: 7503 d53d dc0a bc3c 03d2 783e 88bd 7cbd
000003e0: 14ae 613e bdb4 08be 0139 e4bd 991b 3d3d
000003f0: 4c01 b1be bc64 09bc 399c 50bd ea02 16bf

Self_Att.stages.1.f_query.0.bias f4 [8]
-0.09656131 -0.031746935 0.050725464 -0.09267322 -0.07263635 0.08245924 -0.015568538 0.06086845
00000000: f0c1 c5bd 1309 02bd 81c5 4f3d 75cb bdbd
00000010: 5ec2 94bd 64e0 a83d 2e13 7fbc 3251 793d

Self_Att.stages.1.f_query.1.weight f4 [8]
0.9249414 0.9603197 0.9791045 0.9183448 0.9305487 0.83561 0.9732827 0.8610215
00000000: f6c8 6c3f 83d7 753f 98a6 7a3f a518 6b3f
00000010: 7138 6e3f 89ea 553f 0e29 793f e86b 5c3f

Self_Att.stages.1.f_query.1.bias f4 [8]
-0.13662551 -0.035361644 -0.2987515 0.6499332 -0.38134277 -0.016967352 0.27267945 -0.4596919
00000000: 8fe7 0bbe 5fd7 10bd f5f5 98be 0662 263f
00000010: 5c3f c3be 1eff 8abc a49c 8b3e bd5c ebbe

Self_Att.stages.1.f_query.1.running_mean f4 [8]
-0.34477982 0.07943219 0.1087741 0.4411526 -0.21678686 -0.057606958 0.25308457 0.45777673
00000000: fb86 b0be 58ad a23d f5c4 de3d c1de e13e
00000010: 60fd 5dbe 46f5 6bbd 4d94 813e b661 ea3e

Self_Att.stages.1.f_query.1.running_var f4 [8]
0.40043545 0.2670514 0.26381898 0.28093433 0.2891943 0.09897435 0.35389838 0.4053421
00000000: e005 cd3e f6ba 883e 4813 873e a0d6 8f3e
00000010: 4611 943e 10b3 ca3d 2b32 b53e 0089 cf3e

Self_Att.stages.1.f_value.weight f4 [64, 64, 1, 1]
-0.06496296 -0.06122165 -0.011397602 0.009102629 0.13125503 -0.06381543 -0.050288558 -0.064252056
-0.11493261 -0.23110244 -0.17241353 0.07279608 -0.048758008 -0.12678643 0.059612755 -0.03683537
0.0014013627 -0.24234043 -0.07659336 -0.13916427 -0.23809506 -0.008027822 -0.07146241 -0.090218455
-0.087606914 -0.06056646 -0.039265215 0.05168743 -0.11554807 -0.17012748 -0.03525472 -0.24671005
-0.03504207 0.02200997 -0.17004211 -0.057433646 -0.016383098 -0.20394003 -0.23524034 -0.07829201
0.014354457 -0.2661658 -0.1299508 0.09930002 0.13293462 -0.034124237 -0.2505569 -0.010158894
-0.098260224 -0.24628113 0.04153329 0.037505224 0.044971533 -0.034708068 0.08023542 -0.07896301
-0.0041521383 -0.05608537 0.023178753 -0.09596951 0.006888898 -0.22270456 -0.04707015 0.008589905
0.049885273 -0.010029563 -0.014341095 0.03513704 0.0013693474 0.019132638 -0.014790525 -0.02335024
-0.012196653 -0.001099775 0.03523953 -0.0064755874 0.0071164304 -0.038563937 -0.008134456 0.009311924
0.0053786077 -0.050711352 -0.020148288 0.012021169 -0.025806319 -0.013229281 0.018594846 -0.010707015
0.0041084797 -0.006395568 0.02278199 0.034015767 0.022772862 0.0016366567 -0.031938083 -0.015373945
0.026551131 0.006077666 -0.029097809 -0.018128894 0.007821418 -0.01646237 -0.014180867 -0.03737333
0.03603709 0.02228607 -0.010812125 0.02641322 0.031633742 -0.0013280084 0.011570013 -0.0002964431
-0.010455708 0.0015743601 -0.012717941 0.042984292 -0.012688659 -0.012333214 0.034429267 0.0005466889
0.0149903055 0.0025053825 -0.0009064798 0.050088335 -0.0162176 0.00012200773 0.014637247 -0.004853022
0.010417123 0.027049733 -0.006171371 0.0027021102 -0.058639675 -0.006566386 -0.010791621 0.0052392473
0.04997499 0.009800652 -0.0068106153 -0.01247082 -0.014924529 0.008655254 -0.036640905 0.003854077
0.030909957 -0.017339978 -0.001166804 -0.0120161045 0.0014315541 -4.301995e-05 0.024313293 0.01209954
-0.030631326 -0.010258671 0.00090206193 0.012501364 0.031650208 0.014688817 -0.009590497 0.054667763
0.017410962 0.03822785 0.019733958 -0.0148319695 0.046540644 -0.019694934 0.0333819 -0.004449971
0.0063152565 0.06324875 0.0015643265 -0.0054489686 0.035107847 0.015571787 -0.020530315 -0.002271809
-0.02812325 0.036459535 0.012814106 0.007946749 -0.01177015 0.01164073 -0.018635089 0.0072560315
0.016523212 -0.0064394954 -0.0003283405 -0.025004186 0.0015346486 -0.028554944 0.0062952763 0.014108762
0.03282532 -0.01498463 -0.021839557 0.0043030763 0.009642595 0.038301397 -0.004110476 -0.016236989
0.015440439 0.016682457 1.7860348e-05 -0.0041978583 -0.006688848 -0.0220377 0.014424973 0.0045192866
0.005066807 0.0071692374 -0.018526014 -0.02388499 0.025724491 6.0158276e-05 -0.043546334 0.052801903
0.030278781 0.011572032 -0.011128064 -0.0061448384 -0.0124905985 -0.00825997 -0.007014219 0.017451186
-0.005910382 0.030470114 0.008511112 -0.016080378 0.007417842 0.0052052974 -0.015477327 0.022965705
-0.008027432 0.022983443 -0.0035503656 -0.0012545976 -0.024522802 -0.024389327 0.0047661797 -0.04496904
0.026730895 -0.0227072 -0.0054007913 0.016316768 0.02023777 -0.03998535 -0.0244774 -0.0066249603
0.034069605 0.0020612325 0.0034358564 -0.038944695 0.011274309 0.03135157 -0.0025888837 0.0040355274
00000000: 4d0b 85bd 8ec3 7abd 02bd 3abc 3123 153c
00000010: b867 063e aab1 82bd 60fb 4dbd 9596 83bd
00000020: ca61 ebbd 1ea6 6cbe 2c8d 30be 1c16 953d
00000030: 7ab6 47bd 4dd4 01be 812c 743d afe0 16bd
00000040: eead b73a 1728 78be fbdc 9cbd 1481 0ebe
00000050: 31cf 73be 2087 03bc e25a 92bd 74c4 b8bd
00000060: 416b b3bd 8914 78bd 90d4 20bd 33b6 533d
00000070: 77a4 ecbd e635 2ebe 4167 10bd 8fa1 7cbe
00000080: 4688 0fbd 414e b43c 851f 2ebe 8b3f 6bbd
00000090: d935 86bc a8d5 50be d8e2 70be 9057 a0bd
000000a0: f52e 6b3c e246 88be d311 05be cf5d cb3d
000000b0: 0320 083e dbc5 0bbd fe48 80be 7d71 26bc
000000c0: a83c c9bd 1f31 7cbe d01e 2a3d 149f 193d
000000d0: 1234 383d 0c2a 0ebd 7852 a43d 5cb7 a1bd
000000e0: a90e 88bb c6b9 65bd 5ee1 bd3c aa8b c4bd
000000f0: 44bc e13b aa0c 64be a1cc 40bd acbc 0c3c
00000100: 8054 4c3d 0953 24bc eaf6 6abc dbeb 0f3d
00000110: ad7b b33a 0dbc 9c3c f553 72bc 0149 bfbc
00000120: 78d4 47bc 5326 90ba 5357 103d 2a31 d4bb
00000130: f230 e93b 38f5 1dbd 6246 05bc 0a91 183c
00000140: 083f b03b b5b6 4fbd 060e a5bc 70f4 443c
00000150: c667 d3bc a0bf 58bc 3854 983c 7a6c 2fbc
00000160: 6da0 863b ea91 d1bb 4ca1 ba3c 1e54 0b3d
00000170: 278e ba3c 1685 d63a 82d1 02bd 00e3 7bbc
00000180: c281 d93c 2827 c73b 875e eebc 0c83 94bc
00000190: 6825 003c 18dc 86bc de56 68bc c714 19bd
000001a0: a19b 133d 4791 b63c 5725 31bc 8a60 d83c
000001b0: 6292 013d 9110 aeba 2790 3d3c eb6b 9bb9
000001c0: 6b4e 2bbc c25a ce3a e95e 50bc 4c10 303d
000001d0: 18e4 4fbc 4011 4abc b405 0d3d ac4f 0f3a
000001e0: e699 753c 5831 243b d4a0 6dba 6d29 4d3d
000001f0: c6da 84bc 67de ff38 10d1 6f3c 1906 9fbb
00000200: 95ac 2a3c 6797 dd3c 3639 cabb e315 313b
00000210: 2830 70bd d72a d7bb 57cf 30bc fead ab3b
00000220: 93b2 4c3d ea92 203c 952b dfbb 6952 4cbc
00000230: 0386 74bc c4ce 0d3c c614 16bd af94 7c3b
00000240: e136 fd3c 920c 8ebc 72ef 98ba 32df 44bc
00000250: fca2 bb3a 5270 34b8 ac2c c73c 263d 463c
00000260: 8cee fabc fc13 28bc 5a78 6c3a 85d2 4c3c
00000270: a6a3 013d 5da9 703c 7621 1dbc 4eeb 5f3d
00000280: 6fa1 8e3c ce94 1c3d 1ca9 a13c ca01 73bc
00000290: 67a1 3e3d 4557 a1bc 76bb 083d 10d1 91bb
000002a0: 36f0 ce3b 9088 813d 160a cd3a 438d b2bb
000002b0: 3fcd 0f3d cf20 7f3c 312f a8bc a1e2 14bb
000002c0: bb62 e6bc 9856 153d 42f2 513c 1533 023c
000002d0: 96d7 40bc c3b8 3e3c 9da8 98bc 01c4 ed3b
000002e0: b05b 873c 6702 d3bb 1e25 acb9 94d5 ccbc
000002f0: 4326 c93a 0fec e9bc 9b48 ce3b 7028 673c
00000300: d873 063d 1882 75bc dfe8 b2bc d200 8d3b
00000310: fafb 1d3c ede1 1c3d 2cb1 86bb 6f03 85bc
00000320: e5f9 7c3c a6a9 883c ced2 9537 308e 89bb
00000330: 202e dbbb 6888 b4bc b956 6c3c 8616 943b
00000340: 7507 a63b eceb ea3b dec3 97bc 74aa c3bc
00000350: 2bbc d23c 7552 7c38 a45d 32bd cf46 583d
00000360: 350b f83c 9f98 3d3c 7c52 36bc a45a c9bb
00000370: 5ea5 4cbc d354 07bc 89d7 e5bb caf5 8e3c
00000380: e1ab c1bb 769c f93c 3172 0b3c ffba 83bc
00000390: 5e11 f33b 3391 aa3b 9d94 7dbc 9322 bc3c
000003a0: 7d85 03bc c647 bc3c 40ad 68bb 4f71 a4ba
000003b0: 0be4 c8bc 20cc c7bc 9d2d 9c3b 7531 38bd
000003c0: c0fa da3c 7304 babc 1ff9 b0bb beaa 853c
000003d0: aec9 a53c aec7 23bd d484 c8bc 3216 d9bb
000003e0: 928c 0b3d be15 073b 1b2c 613b 7984 1fbd
000003f0: e1b7 383c 816a 003d 43aa 29bb 753c 843b

Self_Att.stages.1.f_value.bias f4 [64]
-0.6370032 0.05832677 -0.06697484 -0.07823073 0.0649536 -0.044808798 -0.0016272097 -0.023767233
-0.03590049 -0.008676317 -0.10726342 0.535308 0.04943682 0.2762681 -0.05652084 -0.0795635
-0.08290421 0.013841481 0.1310497 -0.06449225 -0.043233447 -0.074130274 -0.49294937 -0.09012217
-0.10759511 0.085212246 0.32908934 -0.0006888845 0.17953306 0.1554241 0.15492322 -0.09938055
-0.053062867 0.058502197 -0.1358053 -0.099871576 0.10153143 0.0060761166 0.05476889 -0.15353414
0.043487307 0.10125026 0.04890982 -0.06010703 0.26927334 0.042844325 -0.035627436 0.53945047
-0.09701539 -0.089154094 -0.061290186 0.14695032 -0.064955756 -0.01804454 0.11198921 -0.042812068
0.1147432 -0.07752358 -0.020525228 -0.028957358 -0.11073265 -0.09977945 -0.1010942 -0.04145574
00000000: a412 23bf 0de8 6e3d 1b2a 89bd 6f37 a0bd
00000010: 6506 853d 6e89 37bd 1948 d5ba 80b3 c2bc
00000020: 640c 13bd 1c27 0ebc edac dbbd f209 093f
00000030: 437e 4a3d 0373 8d3e 6582 67bd 30f2 a2bd
00000040: afc9 a9bd 61c7 623c e431 063e 8314 84bd
00000050: 8e15 31bd 9dd1 97bd dc63 fcbe f991 b8bd
00000060: d35a dcbd c283 ae3d 667e a83e 4296 34ba
00000070: 84d7 373e 7f27 1f3e 31a4 1e3e 0888 cbbd
00000080: 7358 59bd 00a0 6f3d 8b10 0bbe 7889 ccbd
00000090: b6ef cf3d 291a c73b 5855 603d 0e38 1dbe
000000a0: bf1f 323d 4c5c cf3d aa55 483d ca32 76bd
000000b0: 32de 893e 887d 2f3d 13ee 11bd 6d19 0a3f
000000c0: 01b0 c6bd 6c96 b6bd 6b0b 7bbd 257a 163e
000000d0: 8607 85bd 25d2 93bc 995a e53d b55b 2fbd
000000e0: 7cfe ea3d afc4 9ebd 8624 a8bc fb37 edbc
000000f0: cdc7 e2bd 2b59 ccbd 7a0a cfbd 7ecd 29bd
